{"keras_version": "2.2.4", "backend": "tensorflow", "config": {"output_layers": [["dense_3", 0, 0]], "name": "model_1", "layers": [{"inbound_nodes": [], "name": "input_1", "config": {"sparse": false, "dtype": "float32", "name": "input_1", "batch_input_shape": [null, 256, 256, 3]}, "class_name": "InputLayer"}, {"inbound_nodes": [[["input_1", 0, 0, {}]]], "name": "conv2d_1", "config": {"kernel_size": [3, 3], "data_format": "channels_last", "name": "conv2d_1", "use_bias": false, "activity_regularizer": null, "bias_initializer": {"config": {}, "class_name": "Zeros"}, "filters": 64, "strides": [1, 1], "activation": "linear", "padding": "same", "kernel_constraint": null, "bias_regularizer": {"config": {"l1": 0.0, "l2": 9.999999747378752e-06}, "class_name": "L1L2"}, "bias_constraint": null, "trainable": false, "dilation_rate": [1, 1], "kernel_initializer": {"config": {"seed": null, "gain": 1.0}, "class_name": "Orthogonal"}, "kernel_regularizer": {"config": {"l1": 0.0, "l2": 9.999999747378752e-06}, "class_name": "L1L2"}}, "class_name": "Conv2D"}, {"inbound_nodes": [[["conv2d_1", 0, 0, {}]]], "name": "batch_normalization_1", "config": {"gamma_regularizer": null, "name": "batch_normalization_1", "epsilon": 0.001, "beta_regularizer": null, "momentum": 0.99, "center": true, "gamma_constraint": null, "beta_constraint": null, "beta_initializer": {"config": {}, "class_name": "Zeros"}, "moving_variance_initializer": {"config": {}, "class_name": "Ones"}, "scale": true, "moving_mean_initializer": {"config": {}, "class_name": "Zeros"}, "trainable": false, "axis": -1, "gamma_initializer": {"config": {}, "class_name": "Ones"}}, "class_name": "BatchNormalization"}, {"inbound_nodes": [[["batch_normalization_1", 0, 0, {}]]], "name": "activation_1", "config": {"trainable": false, "name": "activation_1", "activation": "relu"}, "class_name": "Activation"}, {"inbound_nodes": [[["activation_1", 0, 0, {}]]], "name": "conv2d_2", "config": {"kernel_size": [3, 3], "data_format": "channels_last", "name": "conv2d_2", "use_bias": false, "activity_regularizer": null, "bias_initializer": {"config": {}, "class_name": "Zeros"}, "filters": 64, "strides": [1, 1], "activation": "linear", "padding": "same", "kernel_constraint": null, "bias_regularizer": {"config": {"l1": 0.0, "l2": 9.999999747378752e-06}, "class_name": "L1L2"}, "bias_constraint": null, "trainable": false, "dilation_rate": [1, 1], "kernel_initializer": {"config": {"seed": null, "gain": 1.0}, "class_name": "Orthogonal"}, "kernel_regularizer": {"config": {"l1": 0.0, "l2": 9.999999747378752e-06}, "class_name": "L1L2"}}, "class_name": "Conv2D"}, {"inbound_nodes": [[["conv2d_2", 0, 0, {}]]], "name": "batch_normalization_2", "config": {"gamma_regularizer": null, "name": "batch_normalization_2", "epsilon": 0.001, "beta_regularizer": null, "momentum": 0.99, "center": true, "gamma_constraint": null, "beta_constraint": null, "beta_initializer": {"config": {}, "class_name": "Zeros"}, "moving_variance_initializer": {"config": {}, "class_name": "Ones"}, "scale": true, "moving_mean_initializer": {"config": {}, "class_name": "Zeros"}, "trainable": false, "axis": -1, "gamma_initializer": {"config": {}, "class_name": "Ones"}}, "class_name": "BatchNormalization"}, {"inbound_nodes": [[["batch_normalization_2", 0, 0, {}]]], "name": "activation_2", "config": {"trainable": false, "name": "activation_2", "activation": "relu"}, "class_name": "Activation"}, {"inbound_nodes": [[["activation_2", 0, 0, {}]]], "name": "max_pooling2d_1", "config": {"data_format": "channels_last", "name": "max_pooling2d_1", "pool_size": [2, 2], "trainable": false, "padding": "valid", "strides": [2, 2]}, "class_name": "MaxPooling2D"}, {"inbound_nodes": [[["max_pooling2d_1", 0, 0, {}]]], "name": "conv2d_3", "config": {"kernel_size": [3, 3], "data_format": "channels_last", "name": "conv2d_3", "use_bias": false, "activity_regularizer": null, "bias_initializer": {"config": {}, "class_name": "Zeros"}, "filters": 64, "strides": [1, 1], "activation": "linear", "padding": "same", "kernel_constraint": null, "bias_regularizer": {"config": {"l1": 0.0, "l2": 9.999999747378752e-06}, "class_name": "L1L2"}, "bias_constraint": null, "trainable": false, "dilation_rate": [1, 1], "kernel_initializer": {"config": {"seed": null, "gain": 1.0}, "class_name": "Orthogonal"}, "kernel_regularizer": {"config": {"l1": 0.0, "l2": 9.999999747378752e-06}, "class_name": "L1L2"}}, "class_name": "Conv2D"}, {"inbound_nodes": [[["conv2d_3", 0, 0, {}]]], "name": "batch_normalization_3", "config": {"gamma_regularizer": null, "name": "batch_normalization_3", "epsilon": 0.001, "beta_regularizer": null, "momentum": 0.99, "center": true, "gamma_constraint": null, "beta_constraint": null, "beta_initializer": {"config": {}, "class_name": "Zeros"}, "moving_variance_initializer": {"config": {}, "class_name": "Ones"}, "scale": true, "moving_mean_initializer": {"config": {}, "class_name": "Zeros"}, "trainable": false, "axis": -1, "gamma_initializer": {"config": {}, "class_name": "Ones"}}, "class_name": "BatchNormalization"}, {"inbound_nodes": [[["batch_normalization_3", 0, 0, {}]]], "name": "activation_3", "config": {"trainable": false, "name": "activation_3", "activation": "relu"}, "class_name": "Activation"}, {"inbound_nodes": [[["activation_3", 0, 0, {}]]], "name": "conv2d_4", "config": {"kernel_size": [3, 3], "data_format": "channels_last", "name": "conv2d_4", "use_bias": false, "activity_regularizer": null, "bias_initializer": {"config": {}, "class_name": "Zeros"}, "filters": 64, "strides": [1, 1], "activation": "linear", "padding": "same", "kernel_constraint": null, "bias_regularizer": {"config": {"l1": 0.0, "l2": 9.999999747378752e-06}, "class_name": "L1L2"}, "bias_constraint": null, "trainable": false, "dilation_rate": [1, 1], "kernel_initializer": {"config": {"seed": null, "gain": 1.0}, "class_name": "Orthogonal"}, "kernel_regularizer": {"config": {"l1": 0.0, "l2": 9.999999747378752e-06}, "class_name": "L1L2"}}, "class_name": "Conv2D"}, {"inbound_nodes": [[["conv2d_4", 0, 0, {}]]], "name": "batch_normalization_4", "config": {"gamma_regularizer": null, "name": "batch_normalization_4", "epsilon": 0.001, "beta_regularizer": null, "momentum": 0.99, "center": true, "gamma_constraint": null, "beta_constraint": null, "beta_initializer": {"config": {}, "class_name": "Zeros"}, "moving_variance_initializer": {"config": {}, "class_name": "Ones"}, "scale": true, "moving_mean_initializer": {"config": {}, "class_name": "Zeros"}, "trainable": false, "axis": -1, "gamma_initializer": {"config": {}, "class_name": "Ones"}}, "class_name": "BatchNormalization"}, {"inbound_nodes": [[["batch_normalization_4", 0, 0, {}]]], "name": "activation_4", "config": {"trainable": false, "name": "activation_4", "activation": "relu"}, "class_name": "Activation"}, {"inbound_nodes": [[["activation_4", 0, 0, {}]]], "name": "max_pooling2d_2", "config": {"data_format": "channels_last", "name": "max_pooling2d_2", "pool_size": [2, 2], "trainable": false, "padding": "valid", "strides": [2, 2]}, "class_name": "MaxPooling2D"}, {"inbound_nodes": [[["max_pooling2d_2", 0, 0, {}]]], "name": "conv2d_5", "config": {"kernel_size": [3, 3], "data_format": "channels_last", "name": "conv2d_5", "use_bias": false, "activity_regularizer": null, "bias_initializer": {"config": {}, "class_name": "Zeros"}, "filters": 64, "strides": [1, 1], "activation": "linear", "padding": "same", "kernel_constraint": null, "bias_regularizer": {"config": {"l1": 0.0, "l2": 9.999999747378752e-06}, "class_name": "L1L2"}, "bias_constraint": null, "trainable": false, "dilation_rate": [1, 1], "kernel_initializer": {"config": {"seed": null, "gain": 1.0}, "class_name": "Orthogonal"}, "kernel_regularizer": {"config": {"l1": 0.0, "l2": 9.999999747378752e-06}, "class_name": "L1L2"}}, "class_name": "Conv2D"}, {"inbound_nodes": [[["conv2d_5", 0, 0, {}]]], "name": "batch_normalization_5", "config": {"gamma_regularizer": null, "name": "batch_normalization_5", "epsilon": 0.001, "beta_regularizer": null, "momentum": 0.99, "center": true, "gamma_constraint": null, "beta_constraint": null, "beta_initializer": {"config": {}, "class_name": "Zeros"}, "moving_variance_initializer": {"config": {}, "class_name": "Ones"}, "scale": true, "moving_mean_initializer": {"config": {}, "class_name": "Zeros"}, "trainable": false, "axis": -1, "gamma_initializer": {"config": {}, "class_name": "Ones"}}, "class_name": "BatchNormalization"}, {"inbound_nodes": [[["batch_normalization_5", 0, 0, {}]]], "name": "activation_5", "config": {"trainable": false, "name": "activation_5", "activation": "relu"}, "class_name": "Activation"}, {"inbound_nodes": [[["activation_5", 0, 0, {}]]], "name": "conv2d_6", "config": {"kernel_size": [3, 3], "data_format": "channels_last", "name": "conv2d_6", "use_bias": false, "activity_regularizer": null, "bias_initializer": {"config": {}, "class_name": "Zeros"}, "filters": 64, "strides": [1, 1], "activation": "linear", "padding": "same", "kernel_constraint": null, "bias_regularizer": {"config": {"l1": 0.0, "l2": 9.999999747378752e-06}, "class_name": "L1L2"}, "bias_constraint": null, "trainable": false, "dilation_rate": [1, 1], "kernel_initializer": {"config": {"seed": null, "gain": 1.0}, "class_name": "Orthogonal"}, "kernel_regularizer": {"config": {"l1": 0.0, "l2": 9.999999747378752e-06}, "class_name": "L1L2"}}, "class_name": "Conv2D"}, {"inbound_nodes": [[["conv2d_6", 0, 0, {}]]], "name": "batch_normalization_6", "config": {"gamma_regularizer": null, "name": "batch_normalization_6", "epsilon": 0.001, "beta_regularizer": null, "momentum": 0.99, "center": true, "gamma_constraint": null, "beta_constraint": null, "beta_initializer": {"config": {}, "class_name": "Zeros"}, "moving_variance_initializer": {"config": {}, "class_name": "Ones"}, "scale": true, "moving_mean_initializer": {"config": {}, "class_name": "Zeros"}, "trainable": false, "axis": -1, "gamma_initializer": {"config": {}, "class_name": "Ones"}}, "class_name": "BatchNormalization"}, {"inbound_nodes": [[["batch_normalization_6", 0, 0, {}]]], "name": "activation_6", "config": {"trainable": false, "name": "activation_6", "activation": "relu"}, "class_name": "Activation"}, {"inbound_nodes": [[["activation_6", 0, 0, {}]]], "name": "max_pooling2d_3", "config": {"data_format": "channels_last", "name": "max_pooling2d_3", "pool_size": [2, 2], "trainable": false, "padding": "valid", "strides": [2, 2]}, "class_name": "MaxPooling2D"}, {"inbound_nodes": [[["max_pooling2d_3", 0, 0, {}]]], "name": "conv2d_7", "config": {"kernel_size": [3, 3], "data_format": "channels_last", "name": "conv2d_7", "use_bias": false, "activity_regularizer": null, "bias_initializer": {"config": {}, "class_name": "Zeros"}, "filters": 64, "strides": [1, 1], "activation": "linear", "padding": "same", "kernel_constraint": null, "bias_regularizer": {"config": {"l1": 0.0, "l2": 9.999999747378752e-06}, "class_name": "L1L2"}, "bias_constraint": null, "trainable": false, "dilation_rate": [1, 1], "kernel_initializer": {"config": {"seed": null, "gain": 1.0}, "class_name": "Orthogonal"}, "kernel_regularizer": {"config": {"l1": 0.0, "l2": 9.999999747378752e-06}, "class_name": "L1L2"}}, "class_name": "Conv2D"}, {"inbound_nodes": [[["conv2d_7", 0, 0, {}]]], "name": "batch_normalization_7", "config": {"gamma_regularizer": null, "name": "batch_normalization_7", "epsilon": 0.001, "beta_regularizer": null, "momentum": 0.99, "center": true, "gamma_constraint": null, "beta_constraint": null, "beta_initializer": {"config": {}, "class_name": "Zeros"}, "moving_variance_initializer": {"config": {}, "class_name": "Ones"}, "scale": true, "moving_mean_initializer": {"config": {}, "class_name": "Zeros"}, "trainable": false, "axis": -1, "gamma_initializer": {"config": {}, "class_name": "Ones"}}, "class_name": "BatchNormalization"}, {"inbound_nodes": [[["batch_normalization_7", 0, 0, {}]]], "name": "activation_7", "config": {"trainable": false, "name": "activation_7", "activation": "relu"}, "class_name": "Activation"}, {"inbound_nodes": [[["activation_7", 0, 0, {}]]], "name": "conv2d_8", "config": {"kernel_size": [3, 3], "data_format": "channels_last", "name": "conv2d_8", "use_bias": false, "activity_regularizer": null, "bias_initializer": {"config": {}, "class_name": "Zeros"}, "filters": 64, "strides": [1, 1], "activation": "linear", "padding": "same", "kernel_constraint": null, "bias_regularizer": {"config": {"l1": 0.0, "l2": 9.999999747378752e-06}, "class_name": "L1L2"}, "bias_constraint": null, "trainable": false, "dilation_rate": [1, 1], "kernel_initializer": {"config": {"seed": null, "gain": 1.0}, "class_name": "Orthogonal"}, "kernel_regularizer": {"config": {"l1": 0.0, "l2": 9.999999747378752e-06}, "class_name": "L1L2"}}, "class_name": "Conv2D"}, {"inbound_nodes": [[["conv2d_8", 0, 0, {}]]], "name": "batch_normalization_8", "config": {"gamma_regularizer": null, "name": "batch_normalization_8", "epsilon": 0.001, "beta_regularizer": null, "momentum": 0.99, "center": true, "gamma_constraint": null, "beta_constraint": null, "beta_initializer": {"config": {}, "class_name": "Zeros"}, "moving_variance_initializer": {"config": {}, "class_name": "Ones"}, "scale": true, "moving_mean_initializer": {"config": {}, "class_name": "Zeros"}, "trainable": false, "axis": -1, "gamma_initializer": {"config": {}, "class_name": "Ones"}}, "class_name": "BatchNormalization"}, {"inbound_nodes": [[["batch_normalization_8", 0, 0, {}]]], "name": "activation_8", "config": {"trainable": false, "name": "activation_8", "activation": "relu"}, "class_name": "Activation"}, {"inbound_nodes": [[["activation_8", 0, 0, {}]]], "name": "up_sampling2d_1", "config": {"data_format": "channels_last", "trainable": false, "name": "up_sampling2d_1", "interpolation": "nearest", "size": [2, 2]}, "class_name": "UpSampling2D"}, {"inbound_nodes": [[["up_sampling2d_1", 0, 0, {}], ["activation_6", 0, 0, {}]]], "name": "concatenate_1", "config": {"trainable": false, "name": "concatenate_1", "axis": -1}, "class_name": "Concatenate"}, {"inbound_nodes": [[["concatenate_1", 0, 0, {}]]], "name": "conv2d_9", "config": {"kernel_size": [3, 3], "data_format": "channels_last", "name": "conv2d_9", "use_bias": false, "activity_regularizer": null, "bias_initializer": {"config": {}, "class_name": "Zeros"}, "filters": 64, "strides": [1, 1], "activation": "linear", "padding": "same", "kernel_constraint": null, "bias_regularizer": {"config": {"l1": 0.0, "l2": 9.999999747378752e-06}, "class_name": "L1L2"}, "bias_constraint": null, "trainable": false, "dilation_rate": [1, 1], "kernel_initializer": {"config": {"seed": null, "gain": 1.0}, "class_name": "Orthogonal"}, "kernel_regularizer": {"config": {"l1": 0.0, "l2": 9.999999747378752e-06}, "class_name": "L1L2"}}, "class_name": "Conv2D"}, {"inbound_nodes": [[["conv2d_9", 0, 0, {}]]], "name": "batch_normalization_9", "config": {"gamma_regularizer": null, "name": "batch_normalization_9", "epsilon": 0.001, "beta_regularizer": null, "momentum": 0.99, "center": true, "gamma_constraint": null, "beta_constraint": null, "beta_initializer": {"config": {}, "class_name": "Zeros"}, "moving_variance_initializer": {"config": {}, "class_name": "Ones"}, "scale": true, "moving_mean_initializer": {"config": {}, "class_name": "Zeros"}, "trainable": false, "axis": -1, "gamma_initializer": {"config": {}, "class_name": "Ones"}}, "class_name": "BatchNormalization"}, {"inbound_nodes": [[["batch_normalization_9", 0, 0, {}]]], "name": "activation_9", "config": {"trainable": false, "name": "activation_9", "activation": "relu"}, "class_name": "Activation"}, {"inbound_nodes": [[["activation_9", 0, 0, {}]]], "name": "conv2d_10", "config": {"kernel_size": [3, 3], "data_format": "channels_last", "name": "conv2d_10", "use_bias": false, "activity_regularizer": null, "bias_initializer": {"config": {}, "class_name": "Zeros"}, "filters": 64, "strides": [1, 1], "activation": "linear", "padding": "same", "kernel_constraint": null, "bias_regularizer": {"config": {"l1": 0.0, "l2": 9.999999747378752e-06}, "class_name": "L1L2"}, "bias_constraint": null, "trainable": false, "dilation_rate": [1, 1], "kernel_initializer": {"config": {"seed": null, "gain": 1.0}, "class_name": "Orthogonal"}, "kernel_regularizer": {"config": {"l1": 0.0, "l2": 9.999999747378752e-06}, "class_name": "L1L2"}}, "class_name": "Conv2D"}, {"inbound_nodes": [[["conv2d_10", 0, 0, {}]]], "name": "batch_normalization_10", "config": {"gamma_regularizer": null, "name": "batch_normalization_10", "epsilon": 0.001, "beta_regularizer": null, "momentum": 0.99, "center": true, "gamma_constraint": null, "beta_constraint": null, "beta_initializer": {"config": {}, "class_name": "Zeros"}, "moving_variance_initializer": {"config": {}, "class_name": "Ones"}, "scale": true, "moving_mean_initializer": {"config": {}, "class_name": "Zeros"}, "trainable": false, "axis": -1, "gamma_initializer": {"config": {}, "class_name": "Ones"}}, "class_name": "BatchNormalization"}, {"inbound_nodes": [[["batch_normalization_10", 0, 0, {}]]], "name": "activation_10", "config": {"trainable": false, "name": "activation_10", "activation": "relu"}, "class_name": "Activation"}, {"inbound_nodes": [[["activation_10", 0, 0, {}]]], "name": "up_sampling2d_2", "config": {"data_format": "channels_last", "trainable": false, "name": "up_sampling2d_2", "interpolation": "nearest", "size": [2, 2]}, "class_name": "UpSampling2D"}, {"inbound_nodes": [[["up_sampling2d_2", 0, 0, {}], ["activation_4", 0, 0, {}]]], "name": "concatenate_2", "config": {"trainable": false, "name": "concatenate_2", "axis": -1}, "class_name": "Concatenate"}, {"inbound_nodes": [[["concatenate_2", 0, 0, {}]]], "name": "conv2d_11", "config": {"kernel_size": [3, 3], "data_format": "channels_last", "name": "conv2d_11", "use_bias": false, "activity_regularizer": null, "bias_initializer": {"config": {}, "class_name": "Zeros"}, "filters": 64, "strides": [1, 1], "activation": "linear", "padding": "same", "kernel_constraint": null, "bias_regularizer": {"config": {"l1": 0.0, "l2": 9.999999747378752e-06}, "class_name": "L1L2"}, "bias_constraint": null, "trainable": false, "dilation_rate": [1, 1], "kernel_initializer": {"config": {"seed": null, "gain": 1.0}, "class_name": "Orthogonal"}, "kernel_regularizer": {"config": {"l1": 0.0, "l2": 9.999999747378752e-06}, "class_name": "L1L2"}}, "class_name": "Conv2D"}, {"inbound_nodes": [[["conv2d_11", 0, 0, {}]]], "name": "batch_normalization_11", "config": {"gamma_regularizer": null, "name": "batch_normalization_11", "epsilon": 0.001, "beta_regularizer": null, "momentum": 0.99, "center": true, "gamma_constraint": null, "beta_constraint": null, "beta_initializer": {"config": {}, "class_name": "Zeros"}, "moving_variance_initializer": {"config": {}, "class_name": "Ones"}, "scale": true, "moving_mean_initializer": {"config": {}, "class_name": "Zeros"}, "trainable": false, "axis": -1, "gamma_initializer": {"config": {}, "class_name": "Ones"}}, "class_name": "BatchNormalization"}, {"inbound_nodes": [[["batch_normalization_11", 0, 0, {}]]], "name": "activation_11", "config": {"trainable": false, "name": "activation_11", "activation": "relu"}, "class_name": "Activation"}, {"inbound_nodes": [[["activation_11", 0, 0, {}]]], "name": "conv2d_12", "config": {"kernel_size": [3, 3], "data_format": "channels_last", "name": "conv2d_12", "use_bias": false, "activity_regularizer": null, "bias_initializer": {"config": {}, "class_name": "Zeros"}, "filters": 64, "strides": [1, 1], "activation": "linear", "padding": "same", "kernel_constraint": null, "bias_regularizer": {"config": {"l1": 0.0, "l2": 9.999999747378752e-06}, "class_name": "L1L2"}, "bias_constraint": null, "trainable": false, "dilation_rate": [1, 1], "kernel_initializer": {"config": {"seed": null, "gain": 1.0}, "class_name": "Orthogonal"}, "kernel_regularizer": {"config": {"l1": 0.0, "l2": 9.999999747378752e-06}, "class_name": "L1L2"}}, "class_name": "Conv2D"}, {"inbound_nodes": [[["conv2d_12", 0, 0, {}]]], "name": "batch_normalization_12", "config": {"gamma_regularizer": null, "name": "batch_normalization_12", "epsilon": 0.001, "beta_regularizer": null, "momentum": 0.99, "center": true, "gamma_constraint": null, "beta_constraint": null, "beta_initializer": {"config": {}, "class_name": "Zeros"}, "moving_variance_initializer": {"config": {}, "class_name": "Ones"}, "scale": true, "moving_mean_initializer": {"config": {}, "class_name": "Zeros"}, "trainable": false, "axis": -1, "gamma_initializer": {"config": {}, "class_name": "Ones"}}, "class_name": "BatchNormalization"}, {"inbound_nodes": [[["batch_normalization_12", 0, 0, {}]]], "name": "activation_12", "config": {"trainable": false, "name": "activation_12", "activation": "relu"}, "class_name": "Activation"}, {"inbound_nodes": [[["activation_12", 0, 0, {}]]], "name": "up_sampling2d_3", "config": {"data_format": "channels_last", "trainable": false, "name": "up_sampling2d_3", "interpolation": "nearest", "size": [2, 2]}, "class_name": "UpSampling2D"}, {"inbound_nodes": [[["up_sampling2d_3", 0, 0, {}], ["activation_2", 0, 0, {}]]], "name": "concatenate_3", "config": {"trainable": false, "name": "concatenate_3", "axis": -1}, "class_name": "Concatenate"}, {"inbound_nodes": [[["concatenate_3", 0, 0, {}]]], "name": "conv2d_13", "config": {"kernel_size": [3, 3], "data_format": "channels_last", "name": "conv2d_13", "use_bias": false, "activity_regularizer": null, "bias_initializer": {"config": {}, "class_name": "Zeros"}, "filters": 64, "strides": [1, 1], "activation": "linear", "padding": "same", "kernel_constraint": null, "bias_regularizer": null, "bias_constraint": null, "trainable": false, "dilation_rate": [1, 1], "kernel_initializer": {"config": {"seed": null, "gain": 1.0}, "class_name": "Orthogonal"}, "kernel_regularizer": null}, "class_name": "Conv2D"}, {"inbound_nodes": [[["conv2d_13", 0, 0, {}]]], "name": "batch_normalization_13", "config": {"gamma_regularizer": null, "name": "batch_normalization_13", "epsilon": 0.001, "beta_regularizer": null, "momentum": 0.99, "center": true, "gamma_constraint": null, "beta_constraint": null, "beta_initializer": {"config": {}, "class_name": "Zeros"}, "moving_variance_initializer": {"config": {}, "class_name": "Ones"}, "scale": true, "moving_mean_initializer": {"config": {}, "class_name": "Zeros"}, "trainable": false, "axis": -1, "gamma_initializer": {"config": {}, "class_name": "Ones"}}, "class_name": "BatchNormalization"}, {"inbound_nodes": [[["batch_normalization_13", 0, 0, {}]]], "name": "activation_13", "config": {"trainable": false, "name": "activation_13", "activation": "relu"}, "class_name": "Activation"}, {"inbound_nodes": [[["activation_13", 0, 0, {}]]], "name": "pred", "config": {"kernel_size": [1, 1], "data_format": "channels_last", "name": "pred", "use_bias": false, "activity_regularizer": null, "bias_initializer": {"config": {}, "class_name": "Zeros"}, "filters": 1, "strides": [1, 1], "activation": "linear", "padding": "same", "kernel_constraint": null, "bias_regularizer": null, "bias_constraint": null, "trainable": false, "dilation_rate": [1, 1], "kernel_initializer": {"config": {"seed": null, "gain": 1.0}, "class_name": "Orthogonal"}, "kernel_regularizer": null}, "class_name": "Conv2D"}, {"inbound_nodes": [[["pred", 0, 0, {}]]], "name": "batch_normalization_14", "config": {"gamma_regularizer": null, "name": "batch_normalization_14", "epsilon": 0.001, "beta_regularizer": null, "momentum": 0.99, "center": true, "gamma_constraint": null, "beta_constraint": null, "beta_initializer": {"config": {}, "class_name": "Zeros"}, "moving_variance_initializer": {"config": {}, "class_name": "Ones"}, "scale": true, "moving_mean_initializer": {"config": {}, "class_name": "Zeros"}, "trainable": true, "axis": -1, "gamma_initializer": {"config": {}, "class_name": "Ones"}}, "class_name": "BatchNormalization"}, {"inbound_nodes": [[["batch_normalization_14", 0, 0, {}]]], "name": "block1_1", "config": {"kernel_size": [3, 3], "data_format": "channels_last", "name": "block1_1", "use_bias": true, "activity_regularizer": null, "bias_initializer": {"config": {}, "class_name": "Zeros"}, "filters": 64, "strides": [1, 1], "activation": "linear", "padding": "same", "kernel_constraint": null, "bias_regularizer": null, "bias_constraint": null, "trainable": true, "dilation_rate": [1, 1], "kernel_initializer": {"config": {"seed": null, "mode": "fan_avg", "distribution": "uniform", "scale": 1.0}, "class_name": "VarianceScaling"}, "kernel_regularizer": {"config": {"l1": 0.0, "l2": 9.999999747378752e-05}, "class_name": "L1L2"}}, "class_name": "Conv2D"}, {"inbound_nodes": [[["block1_1", 0, 0, {}]]], "name": "activation_18", "config": {"alpha": 0.10000000149011612, "trainable": true, "name": "activation_18"}, "class_name": "LeakyReLU"}, {"inbound_nodes": [[["activation_18", 0, 0, {}]]], "name": "max_pooling2d_1_1", "config": {"data_format": "channels_last", "name": "max_pooling2d_1_1", "pool_size": [28, 28], "trainable": true, "padding": "valid", "strides": [4, 4]}, "class_name": "MaxPooling2D"}, {"inbound_nodes": [[["max_pooling2d_1_1", 0, 0, {}]]], "name": "batch_normalization_2_1", "config": {"gamma_regularizer": null, "name": "batch_normalization_2_1", "epsilon": 0.001, "beta_regularizer": null, "momentum": 0.99, "center": true, "gamma_constraint": null, "beta_constraint": null, "beta_initializer": {"config": {}, "class_name": "Zeros"}, "moving_variance_initializer": {"config": {}, "class_name": "Ones"}, "scale": true, "moving_mean_initializer": {"config": {}, "class_name": "Zeros"}, "trainable": true, "axis": -1, "gamma_initializer": {"config": {}, "class_name": "Ones"}}, "class_name": "BatchNormalization"}, {"inbound_nodes": [[["batch_normalization_2_1", 0, 0, {}]]], "name": "block2_1", "config": {"kernel_size": [3, 3], "data_format": "channels_last", "name": "block2_1", "use_bias": true, "activity_regularizer": null, "bias_initializer": {"config": {}, "class_name": "Zeros"}, "filters": 32, "strides": [1, 1], "activation": "linear", "padding": "same", "kernel_constraint": null, "bias_regularizer": null, "bias_constraint": null, "trainable": true, "dilation_rate": [1, 1], "kernel_initializer": {"config": {"seed": null, "mode": "fan_avg", "distribution": "uniform", "scale": 1.0}, "class_name": "VarianceScaling"}, "kernel_regularizer": {"config": {"l1": 0.0, "l2": 9.999999747378752e-05}, "class_name": "L1L2"}}, "class_name": "Conv2D"}, {"inbound_nodes": [[["block2_1", 0, 0, {}]]], "name": "activation_2_1", "config": {"alpha": 0.10000000149011612, "trainable": true, "name": "activation_2_1"}, "class_name": "LeakyReLU"}, {"inbound_nodes": [[["activation_2_1", 0, 0, {}]]], "name": "max_pooling2d_2_1", "config": {"data_format": "channels_last", "name": "max_pooling2d_2_1", "pool_size": [7, 7], "trainable": true, "padding": "valid", "strides": [4, 4]}, "class_name": "MaxPooling2D"}, {"inbound_nodes": [[["max_pooling2d_2_1", 0, 0, {}]]], "name": "batch_normalization_4_1", "config": {"gamma_regularizer": null, "name": "batch_normalization_4_1", "epsilon": 0.001, "beta_regularizer": null, "momentum": 0.99, "center": true, "gamma_constraint": null, "beta_constraint": null, "beta_initializer": {"config": {}, "class_name": "Zeros"}, "moving_variance_initializer": {"config": {}, "class_name": "Ones"}, "scale": true, "moving_mean_initializer": {"config": {}, "class_name": "Zeros"}, "trainable": true, "axis": -1, "gamma_initializer": {"config": {}, "class_name": "Ones"}}, "class_name": "BatchNormalization"}, {"inbound_nodes": [[["batch_normalization_4_1", 0, 0, {}]]], "name": "dense_1", "config": {"name": "dense_1", "use_bias": true, "activity_regularizer": null, "bias_initializer": {"config": {}, "class_name": "Zeros"}, "activation": "linear", "kernel_constraint": null, "bias_constraint": null, "bias_regularizer": null, "units": 4096, "trainable": true, "kernel_initializer": {"config": {"seed": null, "mode": "fan_avg", "distribution": "uniform", "scale": 1.0}, "class_name": "VarianceScaling"}, "kernel_regularizer": {"config": {"l1": 0.0, "l2": 9.999999747378752e-05}, "class_name": "L1L2"}}, "class_name": "Dense"}, {"inbound_nodes": [[["dense_1", 0, 0, {}]]], "name": "activation_4_1", "config": {"alpha": 0.10000000149011612, "trainable": true, "name": "activation_4_1"}, "class_name": "LeakyReLU"}, {"inbound_nodes": [[["activation_4_1", 0, 0, {}]]], "name": "max_pooling2d_4_1", "config": {"data_format": "channels_last", "name": "max_pooling2d_4_1", "pool_size": [2, 2], "trainable": true, "padding": "valid", "strides": [2, 2]}, "class_name": "MaxPooling2D"}, {"inbound_nodes": [[["max_pooling2d_4_1", 0, 0, {}]]], "name": "batch_normalization_5_1", "config": {"gamma_regularizer": null, "name": "batch_normalization_5_1", "epsilon": 0.001, "beta_regularizer": null, "momentum": 0.99, "center": true, "gamma_constraint": null, "beta_constraint": null, "beta_initializer": {"config": {}, "class_name": "Zeros"}, "moving_variance_initializer": {"config": {}, "class_name": "Ones"}, "scale": true, "moving_mean_initializer": {"config": {}, "class_name": "Zeros"}, "trainable": true, "axis": -1, "gamma_initializer": {"config": {}, "class_name": "Ones"}}, "class_name": "BatchNormalization"}, {"inbound_nodes": [[["batch_normalization_5_1", 0, 0, {}]]], "name": "dense_2", "config": {"name": "dense_2", "use_bias": true, "activity_regularizer": null, "bias_initializer": {"config": {}, "class_name": "Zeros"}, "activation": "linear", "kernel_constraint": null, "bias_constraint": null, "bias_regularizer": null, "units": 32, "trainable": true, "kernel_initializer": {"config": {"seed": null, "mode": "fan_avg", "distribution": "uniform", "scale": 1.0}, "class_name": "VarianceScaling"}, "kernel_regularizer": {"config": {"l1": 0.0, "l2": 9.999999747378752e-05}, "class_name": "L1L2"}}, "class_name": "Dense"}, {"inbound_nodes": [[["dense_2", 0, 0, {}]]], "name": "activation_5_1", "config": {"alpha": 0.10000000149011612, "trainable": true, "name": "activation_5_1"}, "class_name": "LeakyReLU"}, {"inbound_nodes": [[["activation_5_1", 0, 0, {}]]], "name": "max_pooling2d_5_1", "config": {"data_format": "channels_last", "name": "max_pooling2d_5_1", "pool_size": [2, 2], "trainable": true, "padding": "valid", "strides": [2, 2]}, "class_name": "MaxPooling2D"}, {"inbound_nodes": [[["max_pooling2d_5_1", 0, 0, {}]]], "name": "batch_normalization_6_1", "config": {"gamma_regularizer": null, "name": "batch_normalization_6_1", "epsilon": 0.001, "beta_regularizer": null, "momentum": 0.99, "center": true, "gamma_constraint": null, "beta_constraint": null, "beta_initializer": {"config": {}, "class_name": "Zeros"}, "moving_variance_initializer": {"config": {}, "class_name": "Ones"}, "scale": true, "moving_mean_initializer": {"config": {}, "class_name": "Zeros"}, "trainable": true, "axis": -1, "gamma_initializer": {"config": {}, "class_name": "Ones"}}, "class_name": "BatchNormalization"}, {"inbound_nodes": [[["batch_normalization_6_1", 0, 0, {}]]], "name": "flatten_1", "config": {"data_format": "channels_last", "trainable": true, "name": "flatten_1"}, "class_name": "Flatten"}, {"inbound_nodes": [[["flatten_1", 0, 0, {}]]], "name": "dense_3", "config": {"name": "dense_3", "use_bias": true, "activity_regularizer": null, "bias_initializer": {"config": {}, "class_name": "Zeros"}, "activation": "relu", "kernel_constraint": null, "bias_constraint": null, "bias_regularizer": null, "units": 1, "trainable": true, "kernel_initializer": {"config": {"seed": null, "mode": "fan_avg", "distribution": "uniform", "scale": 1.0}, "class_name": "VarianceScaling"}, "kernel_regularizer": {"config": {"l1": 0.0, "l2": 9.999999747378752e-05}, "class_name": "L1L2"}}, "class_name": "Dense"}], "input_layers": [["input_1", 0, 0]]}, "class_name": "Model"}